gobang/data/model.pth (torch_old, 129560 bytes, 3 tensors)

cnn1.bias f4 [32]
000000 4f fa b8 bc 16 e9 9c bd c2 29 cd 3e bc 03 cb bd
       -0.022580294 -0.07661645 0.4007092 -0.09912822
000010 27 76 38 bd 9f 08 bc 3e d2 aa 86 bd 87 1e 10 3e
       -0.045034554 0.36725327 -0.0657555 0.14074145
000020 89 38 e7 3e c1 ee 1c 3d a3 88 08 3d 94 38 6d 3c
       0.4516032 0.03831363 0.033333432 0.014478821
000030 34 ac 01 3e 01 f0 12 3e ae f6 db 3e 21 1f 5b bd
       0.12663347 0.14349367 0.4296164 -0.053496484
000040 0c 2e cf bd e4 9d b7 bd bb 04 8f 3e a4 0e 5f bc
       -0.101162046 -0.08965662 0.27933297 -0.01361433
000050 ec a4 2c bd f4 28 b0 bd d6 ab 19 3d 25 62 8b bd
       -0.04214947 -0.08601561 0.03751739 -0.06805829
000060 ff 3d 91 3e 75 a1 07 be 92 fe 0b 3d 35 48 1c be
       0.28367612 -0.13245185 0.034178324 -0.1526192
000070 80 dd 83 3e f6 a7 aa bd aa 34 f8 bd d5 b0 ed 3e
       0.2575493 -0.08332817 -0.1211942 0.46423975

cnn2.bias f4 [32]
000000 d7 3b 46 3f 66 ad 04 3f 3c 0a 1b 3e 4b b4 59 be
       0.7743506 0.51827085 0.15140623 -0.21260183
000010 36 ed 0f 3e 64 ca 70 bd 7e 22 30 3e 6c 38 99 3e
       0.14055333 -0.058786765 0.17200658 0.2992586
000020 3d 98 02 be 97 7e 38 3f 0a 58 85 3e f7 7e 6e 3e
       -0.12753387 0.7206816 0.2604373 0.2329062
000030 71 79 e4 3d 00 27 ed 3d c5 79 f1 bd 8e 27 98 3e
       0.111559756 0.11579704 -0.11790804 0.29717678
000040 81 98 0f 3f 52 d7 59 3d fe 86 36 be a6 e3 07 3f
       0.5609208 0.05318386 -0.17824933 0.5308174
000050 b8 d7 2b 3e 04 00 0b 3f a7 dc e6 bc e4 74 19 be
       0.16781509 0.542969 -0.028181387 -0.14985996
000060 bb bc 16 3d 17 c8 02 3e 5e 08 be 3e ed bc 96 bc
       0.03680108 0.1277164 0.3711576 -0.018400634
000070 56 f9 26 3d 1b d5 c9 bd 49 6c 8c 3e a5 d7 39 3f
       0.04076513 -0.098551 0.27426365 0.7259467

cnn3.bias f4 [32]
000000 ff b8 a3 3e fa 51 83 3e 3d 26 54 3e 21 c8 48 3f
       0.31977078 0.2564848 0.20717712 0.7843037
000010 f8 1d 50 3f 9c 2f d7 bc dc 9e 81 3f 66 60 58 be
       0.8129573 -0.02626782 1.0126605 -0.21130523
000020 4f df 71 3f 6f 8d e0 3c 67 96 8f 3d d1 4f db 3f
       0.94481367 0.02741119 0.07011109 1.7133733
000030 f4 ed dd 3e a3 c8 22 3e e1 04 8f 3f 36 0d c7 3f
       0.43345606 0.1589685 1.1173364 1.5550907
000040 46 85 e7 bd 4f 81 e4 3e ee 7c 84 3f 3e 77 4a bc
       -0.11304717 0.44629905 1.0350626 -0.012357531
000050 74 f1 2d bd f8 4d 7f 3e 9a fa 1a 3f 36 13 67 3f
       -0.042466596 0.24932086 0.6053864 0.9026369
000060 54 a1 bc 3e be 6f be 3f 63 61 82 bc 2e 19 73 3f
       0.36841834 1.4877851 -0.015915578 0.94960296
000070 b7 3f 9c bd 35 e1 c0 3e 25 14 22 3f 03 97 7f 3f
       -0.0762934 0.3767182 0.6331199 0.998398
